Reinforcement/Reinforcement_Learning/model/reinforce_mod.pth (torch, 17027 bytes, 4 tensors)

linear1.weight f4 [256, 11]
000000 f7 cc dc be e3 d4 bd 3d 7a a4 15 be 97 29 ca be
       -0.43125126 0.092691205 -0.14613524 -0.39484856
000010 35 67 e1 be 56 12 1e bd 41 c7 c9 3e bb 7e a5 3e
       -0.44024053 -0.038591705 0.3940983 0.3232325
000020 c9 cf 89 3e 3f 0b 7b bf 62 bb 36 bf 2b ef c1 be
       0.2691634 -0.98064035 -0.71379673 -0.37877783
000030 7e 06 00 bd 2f 02 c9 3d cb 9b 27 3e b4 d2 0f be
       -0.03125619 0.098148696 0.16368024 -0.1404522
000040 61 5f f3 bc 99 93 2a 3c f1 fb 13 be a8 fe 3a be
       -0.029708566 0.010411167 -0.14451577 -0.18261206
000050 57 64 fe bd f5 d5 59 be 2d 90 c2 be 1d b1 8e be
       -0.12421482 -0.21273024 -0.38000622 -0.27869502
000060 84 22 8d 3e 9c 11 6c be ca 94 c8 be 3d 76 a1 3d
       0.27565396 -0.23053592 -0.39176017 0.0788388
000070 b5 a1 b7 3e bb 16 1e 3e c6 65 c9 be d7 72 dd be
       0.3586556 0.15438358 -0.3933546 -0.43251678
000080 20 2c 24 bf 96 69 69 be 5c 2f 66 be 20 ca 89 3d
       -0.6412983 -0.22794184 -0.22479004 0.067280054
000090 53 fc 54 3e 9a 4a b6 bb c0 37 bc 3d 40 6c 5e bc
       0.20799379 -0.0055630924 0.09190321 -0.0135756135
0000a0 da 17 2d be 66 16 38 be 80 3a 37 be 25 ff b4 bc
       -0.1690363 -0.17977294 -0.1789341 -0.022094319
0000b0 ed 07 aa bc 54 c5 41 3e 3b b6 6b be 49 9f 63 3d
       -0.020755732 0.18922931 -0.23018734 0.055571828
0000c0 5a 3d de bb af 74 00 be 9c 3e 82 3d f8 92 0f be
       -0.006782216 -0.12544511 0.06359598 -0.14020908
0000d0 1d 35 8e be 40 d2 93 be c7 97 02 be c8 c3 86 3e
       -0.27774897 -0.28871346 -0.12753211 0.26321244
0000e0 4b dc ae 3e 35 85 06 bd a4 e8 ad 3d 24 b3 10 be
       0.34152445 -0.03284188 0.08491638 -0.14130837
0000f0 c1 0f e7 3d 2e 42 44 bd 53 4c 3b be 21 98 0e be
       0.11282302 -0.047914676 -0.18290834 -0.1392522
000100 71 4b a1 be 86 42 04 be a0 e1 52 3c a3 75 80 be
       -0.3150287 -0.12916002 0.012871176 -0.2508975
000110 bd 92 1a 3d 36 ef e6 bd d8 36 36 3e ba 18 4d be
       0.037737597 -0.112760946 0.17794359 -0.20028964
000120 a4 06 04 be e5 0d 39 be 95 c5 e4 3b 46 a8 9f be
       -0.12893158 -0.18071707 0.0069815614 -0.3118307
000130 93 d9 fb be ed cc 32 3d f1 0c a7 be 2d 3b 17 3e
       -0.49189433 0.043652464 -0.3262706 0.14768668
000140 12 29 19 be e6 e6 94 bc 57 71 ea bd cc bb bf 3c
       -0.14957073 -0.018176507 -0.11447399 0.023404978
000150 ba 3a 8a 3b 61 28 a8 bd 7d 8f fe be b8 8c 16 be
       0.0042184265 -0.08210827 -0.49718848 -0.14702117
000160 fa 52 3b be 64 e7 4f 3e 1b 1a 64 3d f0 96 90 be
       -0.18293372 0.20303112 0.05568896 -0.28240156
000170 03 35 26 be 0c 81 b5 bc 02 92 30 be 93 7b 26 bd
       -0.1623116 -0.02215626 -0.17243198 -0.040645193
000180 96 80 0d be 40 9c 05 3c 2e e6 fc 3d 20 fb d0 3e
       -0.13818583 0.008154929 0.12348591 0.40816593
000190 ce 1e 6e 3e 8c a5 7e be 72 86 f7 3e b6 a8 32 bd
       0.23253939 -0.24867839 0.4834476 -0.043617927
0001a0 ba 47 57 bc 98 ae 37 bf 8d 0f 35 be 0b 0b 09 3e
       -0.01313966 -0.71750784 -0.17681713 0.13383119
0001b0 23 c8 14 be e0 42 26 3f 6e a3 be 3f a1 86 33 3e
       -0.14529471 0.64945793 1.4893625 0.17531826
0001c0 58 96 b0 be 8e 30 bb bd 3d f1 9e 3d 69 d9 82 be
       -0.34489703 -0.091401204 0.07760856 -0.25556496
0001d0 a8 1c 5c be e6 5d 64 be 19 72 4b be 1f 84 18 3e
       -0.21495306 -0.22301444 -0.19867744 0.1489415
0001e0 e0 27 5f 3e e2 a1 8c bf 9e b8 09 3f 00 34 7c 3f
       0.21792555 -1.0986903 0.5379733 0.98516846
0001f0 f8 90 36 3d 34 97 94 be 4d 61 ea be 85 cf 59 be
       0.044571847 -0.2902161 -0.4577736 -0.21270569
000200 5b 06 1c be e6 a1 30 3e 3f 01 a0 bd 9f 1f 94 bd
       -0.152368 0.1724926 -0.07812738 -0.07232594
000210 b1 6a 7a be 74 77 b4 bd 58 54 69 bd 67 51 90 be
       -0.24454762 -0.088118464 -0.056965202 -0.28187105
000220 6b 3a a7 bc 78 7a ab bd 5f 2c 51 3d 2e f0 96 be
       -0.020413598 -0.083729684 0.051067706 -0.29480118
000230 a0 79 6c be 7d 6f 8b 3d 09 af 1b 3e 5b 49 ce bb
       -0.23093271 0.06808374 0.1520349 -0.0062953657
000240 dc 9a 4a be 3c dd 0a 3e 3b 83 78 bd 4d b7 a1 be
       -0.19785637 0.13560957 -0.060672026 -0.3158516
000250 f6 8a 83 be 5e e5 15 bd b2 1e 69 be ef d5 c3 3d
       -0.25691956 -0.036595695 -0.22765616 0.09562289
000260 2f c8 06 be 9f e5 b7 bd 57 cf dc 39 76 39 b8 3e
       -0.13162301 -0.089793436 0.0004211615 0.3598134
000270 1a ed 1a 3e f2 94 9e 3d df 58 cf bc dd d6 4e be
       0.1512951 0.07743253 -0.025310932 -0.20199151
000280 91 c5 96 be 54 46 44 3d 16 8d 84 be cd d7 30 bf
       -0.29447606 0.047918633 -0.2588889 -0.69079286
000290 e7 ee 23 bd 01 13 fe be 83 65 99 3f 8c 1f b9 bd
       -0.040022757 -0.49623874 1.1984104 -0.0903922
0002a0 bf e2 88 be e5 28 b4 3e ad f1 13 3e 1d f0 a4 be
       -0.26735494 0.3518745 0.1444766 -0.32214442
0002b0 0b 2d 09 bf d5 88 e1 3d 9a e4 fd bd 8a 86 5a bf
       -0.53584355 0.11012427 -0.12397118 -0.8536154
0002c0 b6 8b b7 bd 2b 8c 97 3c 0b ab 79 be 9b bc 86 be
       -0.089621946 0.018499454 -0.24381654 -0.2631577
0002d0 73 a9 2c be 5d d9 8a bd b9 e2 e4 3c 9f 4f b2 be
       -0.16861515 -0.0677974 0.027940141 -0.3482637
0002e0 c9 71 6a be 3a 75 a2 bc 80 ad 34 be e3 b8 f5 be
       -0.22894968 -0.019831289 -0.1764431 -0.4799262
0002f0 5f bb 02 3f 02 43 31 3e 29 46 39 3d ef ac 78 bd
       0.51067156 0.17310718 0.045232926 -0.060711797
000300 68 2a f4 bb a8 3c 10 be a9 f8 73 be 66 fa 19 be
       -0.0074513443 -0.14085639 -0.23825325 -0.15036926
000310 cc ce f4 bd ba 80 d9 be 87 fa 4a 3f 9f 23 f5 bd
       -0.11953506 -0.42481023 0.79288524 -0.11969685
000320 38 6e da be 57 a3 9c 3e 9f 8b 4a 3e ea e1 8f be
       -0.42662215 0.30593368 0.19779824 -0.28102046
000330 5e 16 86 bd e1 7d 04 bf 3d 21 25 bf bd 04 a4 3e
       -0.06547235 -0.51754576 -0.6450384 0.32034865
000340 57 ca fc be 63 9c 2e be 73 08 97 be a4 04 76 be
       -0.49373123 -0.17051844 -0.29498634 -0.24025208
000350 4d c2 8c be fa d0 4a 3d 3f b0 95 3d e4 f6 04 3d
       -0.2749199 0.0495157 0.07309007 0.032462016
000360 ab b0 1d be c5 67 aa 3d 4d 58 0d be 09 bc 93 be
       -0.15399425 0.08320574 -0.13803215 -0.28854397
000370 df 86 a8 be 37 e1 6e be e2 9c 89 3f a3 9e 15 3e
       -0.32915398 -0.233281 1.0751002 0.14611296
000380 00 9b ed 3e 74 9e f1 be e1 be 91 be f0 42 8b 3e
       0.46407318 -0.47191203 -0.28465942 0.27199507
000390 d4 50 17 3e f4 d2 44 bf 25 f8 12 bf b0 f3 e5 bc
       0.14776927 -0.7688439 -0.5740989 -0.0280703
0003a0 7f bc d8 3d 27 ac 46 be 4e b6 0a 3b ed 34 b6 3c
       0.10582828 -0.19401608 0.002116579 0.022242034
0003b0 60 8c fd 3c b4 4b 17 be 71 97 6e be 1d ba e2 be
       0.030950725 -0.14774972 -0.23299958 -0.44282618
0003c0 45 de d0 bd a1 b0 f0 be 54 20 89 3e a3 b9 18 be
       -0.101986445 -0.47009757 0.26782477 -0.14914565
0003d0 41 51 b1 3d 49 b0 c1 3d 3e 67 06 be 40 fa ab bc
       0.08658076 0.09457452 -0.13125321 -0.020993352
0003e0 61 d7 6c 3e f2 d1 73 be 7a ff 8e be dd ae 2d be
       0.23129036 -0.23810557 -0.27929288 -0.16961236
0003f0 39 d7 43 be 99 13 a0 3e 65 27 01 3f 15 9a 3f bf
       -0.1912507 0.31264952 0.50450736 -0.74844486

linear1.bias f4 [256]
000000 05 d5 74 bd 8e 75 d6 be c2 42 cc 3a 55 99 83 be
       -0.059773464 -0.41886562 0.001558386 -0.2570292
000010 f9 36 89 be 69 b6 df be fd 8d 95 be 43 b4 b8 be
       -0.26799753 -0.43693855 -0.2920989 -0.3607503
000020 69 86 8e be 68 bb cc bd 64 f4 ec bd f7 5a de bd
       -0.27836922 -0.099966824 -0.11570051 -0.10857194
000030 28 9a 5e be bb 94 c8 be c2 b4 d9 be da 2a 01 3e
       -0.21738493 -0.39175972 -0.4252072 0.12614003
000040 60 bd da bd 6e 75 fe be 9e 53 9f bd 53 37 9f be
       -0.10680652 -0.49698967 -0.077796206 -0.31096897
000050 7c 85 0f 3e 10 02 62 bd cd 4a b6 be 4e 8c 88 be
       0.14015764 -0.05517775 -0.35603943 -0.26669544
000060 05 d4 d1 be ea f7 7e be 46 13 81 be fe 56 9f be
       -0.4098207 -0.24899259 -0.25210017 -0.31121057
000070 d7 98 c7 be b4 4c 94 3a 10 e4 94 be 6b a8 4c be
       -0.38983795 0.0011314363 -0.29080248 -0.19986121
000080 db 48 e3 be 85 7f aa be 63 1f 17 be df 75 f2 be
       -0.44391522 -0.33300415 -0.14758067 -0.47355554
000090 97 08 9a be 1e 65 38 be e5 72 a0 bd f7 d8 77 bd
       -0.3008468 -0.18007323 -0.078344144 -0.06050965
0000a0 60 1d 01 bf f2 ef 6a 3e b3 0a 8b be 65 25 bc be
       -0.5043545 0.22943094 -0.271566 -0.3674728
0000b0 9c 49 b2 bd e7 d8 bb be 5d f4 12 be 5b 81 95 be
       -0.08705446 -0.3668892 -0.1435103 -0.29200253
0000c0 6e e5 1d bf 69 a1 81 bd 47 8a 9e bd 98 d7 ae be
       -0.61678207 -0.06329615 -0.07741218 -0.3414886
0000d0 a6 89 a8 be ca f9 a2 bd 87 e2 6d be 9a 60 99 be
       -0.32917517 -0.079578 -0.23230945 -0.29956514
0000e0 f7 d9 9d be 54 53 89 be b2 b1 e0 bd 81 c5 a1 3e
       -0.30830356 -0.26821387 -0.10971393 0.31595996
0000f0 23 48 c8 bd f5 c7 34 be 1a 2e 3a be 2f 5b f6 bd
       -0.09779384 -0.17654403 -0.18181649 -0.12029111
000100 67 64 ab be aa ab e5 be 4f b5 68 3d 41 70 2a be
       -0.33475038 -0.44857532 0.056813534 -0.16644384
000110 60 53 39 be 4b 3c f9 bd a8 39 c9 be ea c5 e3 bd
       -0.18098211 -0.12169703 -0.393018 -0.111217335
000120 da 29 31 be 4a 9c 99 3d ed 2d 75 be 06 08 9f be
       -0.17301121 0.07500513 -0.239433 -0.3106081
000130 14 05 c7 bd b0 c1 8d bd 03 f0 43 3e 6e 26 07 bf
       -0.097177655 -0.069217086 0.19134526 -0.52793014
000140 dc 4e c2 be 26 78 63 be 89 21 a0 be 54 6a a9 be
       -0.3795079 -0.22213802 -0.31275585 -0.33088934
000150 26 3d 18 be 07 ef 0f bf f0 58 70 be a6 d5 24 be
       -0.14867076 -0.562241 -0.23471427 -0.16097125
000160 21 21 09 bf 5b 32 e0 bd 7a ca b8 be aa d5 8f be
       -0.53566176 -0.109471045 -0.36091977 -0.280927
000170 fe ab 15 be f7 79 89 be 19 41 9c be 49 70 ea be
       -0.14616391 -0.26850864 -0.30518416 -0.45788792
000180 1e 1e ab be de 9d 5e be ef b4 82 be 99 ba 61 be
       -0.33421415 -0.21739909 -0.25528666 -0.22043838
000190 14 68 b4 bc 4b 4a f1 be a8 d0 8b be 94 d9 c8 be
       -0.022022285 -0.47126994 -0.2730763 -0.392285
0001a0 c3 24 2b be 31 35 16 be e6 82 1a 3d b3 a2 25 be
       -0.16713242 -0.14668728 0.03772249 -0.16175346
0001b0 6d 4f d7 be fa 1f 27 bf a4 49 d9 be 96 36 b4 bd
       -0.42052785 -0.6528317 -0.42438996 -0.08799474
0001c0 df b3 9d be d4 f2 a7 be ca f1 70 bd 87 53 b5 be
       -0.30801293 -0.3280245 -0.058824338 -0.3541529
0001d0 67 c3 c8 be e2 d8 35 be 0d e3 e6 bd 0c b1 35 be
       -0.3921158 -0.17758515 -0.11273775 -0.1774332
0001e0 e1 ee 3a bd 48 3b 9f be b4 26 b6 be 7d 50 07 bd
       -0.04563797 -0.31099916 -0.35576403 -0.033035744
0001f0 f2 3d 0a be ed 8f 00 bf 9d ce 97 be ec c6 b8 be
       -0.13500193 -0.50219613 -0.2964982 -0.36089265
000200 cf 69 90 be 0f b0 70 bd 77 33 6e be 05 32 c8 bd
       -0.28205726 -0.058761653 -0.2326182 -0.097751655
000210 2e 33 1a bf 3c f6 ac be 33 32 9f be cc c4 b7 be
       -0.60234344 -0.33781612 -0.31092986 -0.35892332
000220 06 47 b9 be 01 4c 03 be 3c de b8 3c 2c 9b 27 be
       -0.36187 -0.12821962 0.022566907 -0.16367787
000230 35 c6 c3 bd ab 81 96 bd be 3c ad be 7d f3 56 be
       -0.09559289 -0.07348951 -0.33835405 -0.20991321
000240 0a 0d d7 be ac 8c 8a be cb 98 3a bf c2 dc 1f 3d
       -0.42002136 -0.2706045 -0.72889394 0.03902889
000250 c0 3f ef be 32 36 3d 3c de c7 c5 be 3d 3f 02 be
       -0.46728325 0.011548566 -0.3862905 -0.12719436
000260 70 67 9a 3e 81 4d b4 be d3 83 8a be 88 5d ce be
       0.30157042 -0.3521538 -0.270537 -0.40305734
000270 2b 66 03 bf da 77 0c be 45 10 0a bd 30 a6 f5 be
       -0.5132777 -0.13717595 -0.033706922 -0.47978354
000280 32 fa 94 be 7a 9f 8d be c2 0e 54 3e 38 d8 69 be
       -0.29097134 -0.27660733 0.20708755 -0.22836387
000290 b1 7c 7e be dc 74 8b 3d 96 64 05 bf 80 41 55 bd
       -0.24852253 0.068093985 -0.52106607 -0.05206442
0002a0 00 ed 00 3c ac 09 70 be 22 de 90 be ba 30 39 be
       0.007869005 -0.2344119 -0.28294474 -0.18084994
0002b0 5f 83 8b be 52 85 50 be ea 11 5e 3e 80 68 9b be
       -0.27248666 -0.20363358 0.21686521 -0.30353165
0002c0 e6 08 7b be cd d2 86 be 5a 8d 9e be 77 5d 98 be
       -0.24515113 -0.26332703 -0.30967218 -0.29758808
0002d0 e3 e4 a0 3d 2a d3 c3 be f5 7f 69 be 76 7c 73 bc
       0.07856157 -0.38247043 -0.22802718 -0.014861217
0002e0 3f a6 11 bf e2 bf 5e 3d 8b 62 98 be b3 2e c8 be
       -0.56894296 0.054382212 -0.29762682 -0.3909813
0002f0 b5 79 c5 bd 16 79 3d be 94 c5 a6 be 59 03 19 be
       -0.096423544 -0.18503222 -0.32572615 -0.14942683
000300 46 f0 da 3d 97 5b 5e 3e 34 61 75 be 93 f5 74 bd
       0.1069036 0.21714626 -0.23962861 -0.05980451
000310 21 38 5f be 23 ce d3 3e f0 f6 b5 be b2 28 70 be
       -0.21798755 0.41368207 -0.3553996 -0.23453024
000320 ec be a4 be 52 9b 27 bd 9b e8 2d be 0e bf f0 3c
       -0.32176912 -0.04091961 -0.16983263 0.029387977
000330 76 69 d3 be 95 9f 8e bd 91 fe e7 be f3 2b b9 bd
       -0.41291398 -0.069640316 -0.45311406 -0.09041586
000340 1f a3 af be c8 4b 86 be 06 d0 4f be 49 0e e2 be
       -0.3430414 -0.26229692 -0.20294198 -0.44151524
000350 c0 dd 04 bf 4b d1 0e bd db af 8d be 2c f4 a2 be
       -0.51900864 -0.034867566 -0.2767323 -0.31826913
000360 2f 8f 3b be 50 72 88 be 56 84 fa bd 92 5d 99 be
       -0.18316339 -0.26649714 -0.12232272 -0.299542
000370 48 70 9d be 89 e5 5a be 59 66 ce be 68 90 d2 be
       -0.30749726 -0.21376623 -0.4031246 -0.41125798
000380 bc 9e c1 be 81 b7 dd be 69 1f 08 bf df 64 a6 be
       -0.37816417 -0.43304065 -0.5317293 -0.32498834
000390 bb ac 24 be d1 91 01 bf aa f3 37 be a8 61 01 bf
       -0.16081516 -0.50613123 -0.17964044 -0.50539637
0003a0 47 8b 51 3c fb 60 75 be b0 5d 9f be 2d a4 5a bd
       0.012789554 -0.23962776 -0.31126165 -0.053379226
0003b0 c3 98 4d 3e 55 6c a3 be 3d 0e 8d bd 78 b8 99 bd
       0.20077805 -0.31918588 -0.06887481 -0.07505888
0003c0 7f 3c 73 3c 0d 6e 4e be bd 78 b0 be 4e 2e 34 be
       0.014845966 -0.20159169 -0.34467116 -0.17595789
0003d0 ea bc d0 bd 3e 31 96 be 28 bd c2 be cb 97 80 be
       -0.101922825 -0.29334444 -0.3803494 -0.2511581
0003e0 ef 2e d7 be 7d 0a 62 bc dd a8 47 be d1 31 5a bd
       -0.42027995 -0.013796446 -0.1949801 -0.053270165
0003f0 8c f9 d6 bd b1 e9 2e be cb 0d 6f be 1d 39 d1 be
       -0.10496816 -0.17081334 -0.23345105 -0.40863886

linear2.weight f4 [3, 256]
000000 e5 ec b3 be 62 f6 b7 3a 8c b7 6c be 3f 9a fe 3d
       -0.35141674 0.001403522 -0.23116893 0.12431764
000010 b1 eb 68 3d bc b7 0e be fa 29 d3 3d 11 ec 90 bd
       0.056865398 -0.13937277 0.10310741 -0.07076276
000020 b1 ed ed bc 38 7a 00 bf 64 6d 8a bf 9b 56 f7 bd
       -0.029044004 -0.5018649 -1.0814633 -0.120770656
000030 c5 0a 7d 3d 2a 50 bd bc aa 72 1e bb 99 1a f6 3e
       0.06177785 -0.023109514 -0.0024177232 0.48067167
000040 66 f0 cf bc 3a b7 b4 3d 98 f9 30 bf d7 3b 97 bc
       -0.025383186 0.0882401 -0.6913085 -0.018461151
000050 af 19 ee 3e 11 b6 07 3e 8a de 67 bd 59 10 83 be
       0.4650397 0.13253047 -0.056608714 -0.2559841
000060 e9 84 ad 3c e9 c9 c3 bc b7 b9 66 bf df bb 90 bc
       0.02118154 -0.02389999 -0.9012713 -0.017667709
000070 1a 64 07 be b0 e4 56 3e f7 63 01 bd 5f 57 03 bd
       -0.1322178 0.20985675 -0.031589475 -0.032065745
000080 21 27 77 3b 83 1f 94 3c 5c cb ea 3c 92 d5 81 bd
       0.0037712532 0.018081432 0.028661422 -0.063395634
000090 ba cc a5 bd 46 50 7d be 10 8e d5 3c 7c 75 7d bd
       -0.08095689 -0.24737653 0.026068717 -0.06187962
0000a0 5a 8d c2 3d b2 05 10 3f 29 8d bd 3c cc 1a a9 3d
       0.09499617 0.5625869 0.0231386 0.08257064
0000b0 ed 1f b8 3e 2c 30 ec bd 05 da b0 3d ba 7c 25 3d
       0.35961857 -0.115326256 0.08635334 0.04040215
0000c0 80 2f 1c bf 1f 0e f2 bd 08 55 8e be 13 51 89 3c
       -0.6100998 -0.118191 -0.2779925 0.016762292
0000d0 21 fc b7 3c ab c7 c0 be 03 6f 33 be a0 e8 ad bc
       0.022459092 -0.37652335 -0.17522816 -0.021229088
0000e0 8a 1a de bc e0 6c fe 3c 70 e9 c9 3b 17 32 1f bf
       -0.027112264 0.031057775 0.006161861 -0.62185806
0000f0 5c 32 27 bd b6 6e 33 be 3a f4 3c bd eb 74 ea bd
       -0.04081951 -0.17522702 -0.04613135 -0.114480816
000100 97 c7 9b 3d 9d 70 fa bd 02 0a c7 3e 49 94 00 3c
       0.07606428 -0.122285105 0.38874823 0.007847854
000110 af 3b fd 3c 07 e7 d7 3d c0 37 cc bd e8 34 c0 3d
       0.030912248 0.10542112 -0.09971571 0.09385091
000120 4b 50 42 bc 6d fb 17 3f 90 12 e1 3c 76 56 77 3a
       -0.011859964 0.5936802 0.027474672 0.0009435186
000130 c1 c6 d4 bd a5 7c a4 3d b6 d0 2f bf 49 2c 59 3c
       -0.10389472 0.080315866 -0.6867784 0.013255187
000140 1a 62 4b bd 64 db 3b 3c 7d ac 83 3d c9 ca 8f bd
       -0.049654104 0.011465881 0.06429384 -0.070211
000150 5f 62 01 3e 68 db 76 be 6a c7 33 bd 80 a4 b7 be
       0.12635182 -0.24107134 -0.043891348 -0.3586769
000160 30 43 af 3d 1a 6a ce bc 33 dc 79 bd df 3c 58 be
       0.08557737 -0.025197078 -0.061001014 -0.2111697
000170 a9 4b a8 bb b0 6e cb 3c 85 c8 4f be a2 84 0b be
       -0.0051359725 0.024833053 -0.20291336 -0.13624814
000180 66 0c 31 bf 78 b5 75 3c 8a 7a 9e 3d c0 d2 e4 3b
       -0.69159544 0.014996879 0.07738216 0.006983131
000190 41 2d 37 be cf b4 d7 3d a2 94 2b 3c 63 dc b8 bd
       -0.17888357 0.105325334 0.010472449 -0.090264104
0001a0 1b 57 aa bd de 73 14 bd 61 7c a5 be 76 d4 a8 3d
       -0.08317395 -0.036243312 -0.32321456 0.08243649
0001b0 8c 01 d7 be 6f 85 b7 be bb 7f 54 bf bf 7d 89 bc
       -0.41993368 -0.3584399 -0.830074 -0.016783593
0001c0 01 21 f1 3c 23 e1 48 bd a5 6a d7 be ff 82 3f bd
       0.029434683 -0.049042832 -0.4207355 -0.046755787
0001d0 0d 3d 9d bd c8 24 16 bd 4c 8f 63 3d f4 c5 b3 bc
       -0.0767766 -0.03665617 0.05555658 -0.021944977
0001e0 01 1e 1f be ad 58 9e 3d 97 23 04 be b8 8b 8e 3d
       -0.1553879 0.07731757 -0.12904201 0.06960243
0001f0 68 7c 64 3e 9d c5 4b 3e ef b9 89 3d c9 a5 c3 be
       0.22313082 0.19899602 0.06724917 -0.38212422
000200 68 a6 aa bc 39 83 98 bd e0 be d8 be 67 9a a8 3d
       -0.020831302 -0.07446904 -0.42333126 0.08232575
000210 fc 95 0a bf 7c 9a b0 bc d9 77 40 bd ef be b0 3c
       -0.5413511 -0.021558039 -0.046989296 0.02157542
000220 71 ea 7b bd 06 f7 46 bd fb bd bc bc de 34 6b bd
       -0.061502878 -0.048575424 -0.023039808 -0.057423465
000230 90 72 95 bd 43 82 fe 3c 7a 06 09 be e3 48 b4 3d
       -0.07297242 0.031067973 -0.13381377 0.088029645
000240 86 06 9c bb 9c a1 11 be 03 a9 b9 bd f2 d6 e9 3d
       -0.00476152 -0.14221805 -0.090654396 0.11417951
000250 96 e3 7c 3c 6f ec 2e bf 73 88 b9 bd fc c6 74 bd
       0.01543512 -0.6832952 -0.09059229 -0.05976008
000260 e9 ff a7 3e 17 e6 c5 3d 1e 95 82 3d 82 2e e8 bc
       0.3281243 0.09663027 0.06376098 -0.02834249
000270 a9 43 86 be eb 7a 5d 3d a8 f9 3a be a2 03 fd bc
       -0.26223496 0.0540723 -0.18259299 -0.030885521
000280 0a 76 0a bc 88 d4 2e bd f2 ea 87 bf dc 71 9c bc
       -0.008450994 -0.042683154 -1.0618575 -0.019097261
000290 bb 4b e0 bd 77 f1 e9 3c 9a 3b 47 3d 85 0a d0 3d
       -0.109519444 0.028557522 0.048640825 0.101582564
0002a0 49 e6 98 3e f7 d7 2d be 9d 2d 33 bd 12 1a 7a bc
       0.29863194 -0.16976915 -0.043744672 -0.015265005
0002b0 ad 3e 12 bf 1c bf 96 be c6 c0 28 3f 62 98 97 3d
       -0.57126886 -0.2944268 0.6591915 0.074021116
0002c0 58 e1 28 be 2b cd 88 bf b0 0b 28 bd ba ea 2b 3e
       -0.16492212 -1.0687612 -0.04102677 0.1678876
0002d0 1d 50 60 3f ab b1 c8 be 3f b1 3f bd 1d 48 7c bd
       0.87622243 -0.3919805 -0.046799894 -0.06159221
0002e0 fe 3c d9 bd 7b 88 d4 bd c4 91 ad be 25 17 0d 3e
       -0.106073365 -0.10377594 -0.33900273 0.1377836
0002f0 26 f9 1c bd 62 9b cb bd 28 6e 92 bd db 41 04 3c
       -0.038323544 -0.09941746 -0.07149917 0.008072342
000300 b2 79 31 bf e2 dc 7a bd 53 11 a3 bd dd 11 61 bd
       -0.6932632 -0.061245807 -0.07962289 -0.054948676
000310 9b 92 b4 bd c8 60 31 3f 03 76 68 bd ea d7 a3 3d
       -0.08817025 0.692883 -0.05675317 0.08000167
000320 12 b3 06 3d 5d 5f 27 bd a7 cb 5e be 59 fa 4c 3d
       0.03288562 -0.04086243 -0.21757375 0.050043438
000330 2f 42 ad bd bc 9b d3 be ab a6 f6 3d 65 ee fc 3d
       -0.08459889 -0.41329753 0.12043508 0.12350158
000340 c8 ce d5 be d0 f4 37 3e f5 78 74 3d 85 7e b6 be
       -0.41759324 0.17964482 0.059685666 -0.35643402
000350 98 82 53 be b7 d4 3b 3c 08 6a 91 bc 6f 0f 16 3c
       -0.20655286 0.011464289 -0.017750755 0.009158953
000360 1b f5 c5 3d c7 26 2e 3d b0 ad b9 bd 08 74 c5 be
       0.09665891 0.04251745 -0.090663314 -0.38565087
000370 e2 c5 28 bd ae cd 4c bc dd b8 a2 bc 5b bf e0 bd
       -0.04120434 -0.01250021 -0.01986354 -0.10973998
000380 b7 c3 0c be fc a3 19 bc 49 33 04 be 6c 3d d7 bc
       -0.13746534 -0.009377476 -0.12910189 -0.026274405
000390 f5 9a 91 3d 25 8a 2a bd 60 af b0 bc a2 6d 8d 3e
       0.07109634 -0.04163565 -0.021568 0.27622706
0003a0 a5 53 1e 3e e9 b6 fb bd dd 14 36 3e 49 ba 4b 3c
       0.15461595 -0.12290747 0.17781396 0.012434551
0003b0 ca 65 02 3f 3b 52 2b 3d 74 fe 98 3d 3d 5e 7d 3d
       0.5093657 0.041826468 0.07470408 0.06185745
0003c0 3d 55 0f 3f 16 44 1d 3d fd 43 c6 3b b1 58 4e bc
       0.5598944 0.03839501 0.0060505853 -0.012594388
0003d0 50 a9 eb 3b 5a 03 a6 be 8a d0 a3 3d 58 a7 6a 3d
       0.0071918145 -0.32424432 0.0799876 0.057288498
0003e0 b2 ff 40 bd 06 54 de 3c ed 47 0d 3d 4f e0 d3 be
       -0.04711885 0.027139675 0.034492422 -0.4138207
0003f0 9e 00 41 be 77 f0 f4 bd aa ac 87 be 04 19 46 bd
       -0.18847892 -0.119599275 -0.2649892 -0.0483637

linear2.bias f4 [3]
000000 89 ba de bc 44 e0 0b bf 2d d0 f9 be
       -0.027188556 -0.5463908 -0.48791638
